name: "LeNet"
layers {
  name: "mem_data"
  type: MEMORY_DATA
  top: "data"
  top: "label"
  memory_data_param {
    batch_size: 100
    channels: 1
    height: 55
    width: 1
  }
  transform_param {
    crop_size: 0
    mirror: false 
  }
  include: { phase: TRAIN }
}
layers {
  name: "mem_data"
  type: MEMORY_DATA
  top: "data"
  top: "label"
  memory_data_param {
    batch_size: 100
    channels: 1
    height: 55
    width: 1
  }
  transform_param {
    crop_size: 0
    mirror: false 
  }
  include: { phase: TEST }
}
layers {
  name: "ip"
  type: INNER_PRODUCT
  bottom: "data"
  top: "ip"
  blobs_lr: 1
  blobs_lr: 2
  inner_product_param {
    num_output: 2
    weight_filler {
      type: "xavier"
    }
    bias_filler {
      type: "constant"
    }
  }
}
layers {
  name: "accuracy"
  type: ACCURACY
  bottom: "ip"
  bottom: "label"
  top: "accuracy"
}
layers {
  name: "loss"
  type: SOFTMAX_LOSS
  bottom: "ip"
  bottom: "label"
  top: "loss"
}
